model_3.pt (torch_old, 571788 bytes, 32 tensors)

conv1.0.weight f4 [32, 1, 3, 3]
0	0x3e94b60f	0.2904515
1	0x3e160a5e	0.14652392
2	0x3cf0e618	0.029406592
3	0x3e1ce3d2	0.15321282
4	0x3eafa0f3	0.34302482
5	0x3e1b94f8	0.15193546
6	0xbd7fcc50	-0.062450707
7	0xbd99f1d7	-0.075168304
8	0x3f1435be	0.57894504
9	0x3a720703	0.0009232612
10	0x3c12f4fe	0.0089695435
11	0x3be3ff75	0.006957943
12	0x3de01d0d	0.10943041
13	0x3e222284	0.15833479
14	0x3c905c9b	0.017622283
15	0x3f5b0e2a	0.8556849
16	0x3e770609	0.24123396
17	0xbb3bfc82	-0.0028684442
18	0x3a2cbf24	0.00065897615
19	0x3994dc38	0.00028392836
20	0x39761eb1	0.00023471822
21	0x3a4e83a3	0.0007877892
22	0x407bc3e0	3.9338303
23	0x3a2a9d34	0.00065084104
24	0x39fb84e5	0.00047973465
25	0x39836028	0.0002505791
26	0x39f6c57b	0.0004706791
27	0xbad16a24	-0.0015977067
28	0xba78948b	-0.0009482584
29	0xba886af0	-0.0010407846
30	0xba881f1d	-0.0010385249
31	0x3a093729	0.0005234355
32	0x3a0dd92c	0.0005411084
33	0x3bc6ccaf	0.0060668807
34	0x4048e4f6	3.1389747
35	0x3b7b9d0c	0.0038393168
36	0xbea9b9ec	-0.3314966
37	0xbce6c373	-0.02816937
38	0x3db94242	0.09045841
39	0xbe3159e4	-0.17319447
40	0xbdbbc630	-0.09168661
41	0x3e80704b	0.25085673
42	0xbe9c59f0	-0.30537367
43	0xbe80ab6e	-0.2513079
44	0xbe99dbd9	-0.30050543
45	0x3ba4171f	0.005007639
46	0x3d24a165	0.04019298
47	0x3c553e13	0.013015288
48	0x3c334c4a	0.010943482
49	0x4096171c	4.690321
50	0x3b0b3f22	0.0021247347
51	0x3af70fd2	0.0018849319
52	0x3b2844e0	0.0025675818
53	0x3abcb0a5	0.0014395906
54	0x400dba6f	2.214504
55	0xbc36787a	-0.011137122
56	0xbafef4a6	-0.0019451573
57	0xb6b243e3	-5.3127164e-06
58	0xb9c16ebd	-0.00036894335
59	0xba3bb5ed	-0.0007160593
60	0x39b9219a	0.00035310985
61	0x39544527	0.00020243657
62	0xb8a28cb1	-7.750968e-05
63	0x39b62274	0.00034739415
64	0xb9236919	-0.00015584043
65	0xb5a1e94a	-1.2063331e-06
66	0x40559ec6	3.3378158
67	0x391b22cc	0.00014794915
68	0x37e4fd94	2.72978e-05
69	0x3a933898	0.0011232076
70	0x38db18f4	0.00010447382
71	0x398fdeda	0.00027441123
72	0xbe7843ad	-0.24244566
73	0x3e9f6e8b	0.31139025
74	0x3e6b0bba	0.22953692
75	0x3cc893b3	0.024484491
76	0x3e8bc6f7	0.27300236
77	0x3e1a1613	0.15047483
78	0xbd352a0f	-0.044229563
79	0x3d75f043	0.060043585
80	0x3e3a9dc6	0.18224248
81	0xbd232a59	-0.039835308
82	0xbda96668	-0.082714856
83	0xbcec7f00	-0.028869152
84	0xbd231af7	-0.039820638
85	0xbdb6cf6b	-0.089262806
86	0x3a8fa0ad	0.0010957919
87	0x39293a45	0.00016138803
88	0x3bab63b1	0.00523039
89	0xbf33c1b4	-0.7021744
90	0xbbd251b7	-0.0064184326
91	0xbd8d16a2	-0.068890825
92	0xbc9c3ce7	-0.01907201
93	0xbc29f6e6	-0.010373807
94	0x40246038	2.5683727
95	0x3b5bbedb	0.0033530507
96	0x3bd79daf	0.0065800766
97	0x3c29616b	0.010338168
98	0x3aaa2efb	0.0012983972
99	0xbe13488f	-0.14383148
100	0xbe0c00b3	-0.13672142
101	0x3d5adae5	0.05343141
102	0xbe2e217f	-0.17004965
103	0xbe104bca	-0.14091411
104	0x3f529cdf	0.82270616
105	0xbe3cd6af	-0.1844127
106	0xbe2259b0	-0.15854526
107	0xbd3b5edd	-0.045744766
108	0x3c7abcfa	0.015303845
109	0x3cc876cb	0.024470707
110	0x3c39c5c7	0.011338658
111	0x3cfeddcf	0.031111626
112	0x3d11e546	0.035619043
113	0xbdc200bf	-0.094727986
114	0x3c994a24	0.01871211
115	0xbbf922a5	-0.007603007
116	0xbf7b3215	-0.98123294
117	0xbc953dbf	-0.01821792
118	0xbf8b99bf	-1.0906295
119	0xbc0a88c5	-0.00845546
120	0x3d0ce488	0.034397632
121	0x3e0bf9b2	0.1366947
122	0xbce673c8	-0.02813138
123	0xbcc3263d	-0.023821944
124	0xbd13ca3d	-0.03608154
125	0xbd29ceb5	-0.041456897
126	0xbc683388	-0.014172442
127	0xbe84a800	-0.25909424
128	0xbe6f09b8	-0.23343551
129	0xbe9173e0	-0.28408718
130	0x3e9d5164	0.3072616
131	0xbb382b6c	-0.0028102053
132	0xbe7c4b8c	-0.24638194
133	0xbe517b3a	-0.20457163
134	0xbe3d55f9	-0.18489827
135	0xbf90bfb5	-1.1308504
136	0x3cb46274	0.022019602
137	0x3d27e927	0.040993836
138	0xbe17f037	-0.14837728
139	0x3d0a7917	0.033806887
140	0x3d498366	0.049197577
141	0x3cbca2f6	0.023026925
142	0x3d284a20	0.041086316
143	0x3ca3365f	0.019923387
144	0x388ffdc4	6.866039e-05
145	0x39a75047	0.00031912533
146	0x3927bdea	0.0001599711
147	0x39a1fd25	0.0003089692
148	0xb75d3809	-1.3185673e-05
149	0x390290ee	0.00012451757
150	0xb9a795f6	-0.00031964452
151	0x404201b4	3.031354
152	0xb883c35a	-6.282954e-05
153	0x38d06882	9.937679e-05
154	0xb934f76e	-0.00017258312
155	0x393e49df	0.00018147331
156	0xb7621651	-1.3475846e-05
157	0xb9ab1f53	-0.00032639
158	0x39de7e46	0.0004243722
159	0xba165a8e	-0.00057355396
160	0x39169d9d	0.0001436383
161	0x4064cec6	3.5751204
162	0x3ea4ee64	0.32213128
163	0xbd652707	-0.055945423
164	0x3e914677	0.28374073
165	0xbbf64d86	-0.0075165657
166	0x3da8a66d	0.08234868
167	0x3df04abf	0.11733007
168	0x3dc7bb62	0.09752537
169	0x3e37e74e	0.1795933
170	0x3e83a8a3	0.25714597
171	0xbe1bfbc3	-0.15232758
172	0xbd63da95	-0.055628378
173	0xbdc207c7	-0.0947414
174	0x3df93bf8	0.12169641
175	0xbe27a21b	-0.16370432
176	0x3e774159	0.24146022
177	0xbda95658	-0.08268422
178	0xbe861a97	-0.2619216
179	0xbdc18986	-0.09450059
180	0xbe51e5fb	-0.20497887
181	0x3e7a08f3	0.24417476
182	0xbddaf4b3	-0.10691204
183	0xbd0e81ed	-0.034791876
184	0x3e0328ae	0.12808487
185	0xbcf6d7c2	-0.030132178
186	0xbea90e53	-0.3301874
187	0xbe872ece	-0.26402897
188	0xbe2adb45	-0.16685207
189	0x3a8810f1	0.0010381025
190	0x400d0fd0	2.20409
191	0x3a2fdbac	0.0006708454
192	0xba1472ee	-0.0005662878
193	0xb9f6fe08	-0.00047110044
194	0x38d07c8e	9.941413e-05
195	0xb9f8fb5f	-0.00047489532
196	0xba2315b3	-0.000622119
197	0xb97d2832	-0.00024142934
198	0x3e25727d	0.16156955
199	0x3ecfa0b9	0.4055231
200	0xbe0c94bc	-0.13728613
201	0x3eb2d094	0.34924757
202	0x3e9b71f6	0.30360383
203	0xbe140e98	-0.14458692
204	0x3dad92a6	0.084752366
205	0x3d0f715a	0.03502021
206	0x3d4a2538	0.0493519
207	0x3db8c3d2	0.09021725
208	0x3f2145a3	0.6299688
209	0x3e0e6649	0.13906206
210	0xbd2c9f58	-0.04214415
211	0x3e224fff	0.15850829
212	0x3e45d359	0.19318904
213	0x3e1ddd75	0.1541651
214	0xbe1f516d	-0.15558405
215	0x3c2fe27f	0.010735153
216	0xbe91aa39	-0.28450182
217	0x3d95693f	0.07295465
218	0x3e47ad04	0.19499594
219	0xbe67baae	-0.22629806
220	0xbeb57e20	-0.35447788
221	0xbd6af6c3	-0.057364237
222	0x3cf93646	0.030421387
223	0xbc887447	-0.016657008
224	0xbe0d5672	-0.13802508
225	0x3f79750e	0.97444236
226	0x3f3d9592	0.7405635
227	0x3d119fbe	0.035552733
228	0x3d5fb3c6	0.054614805
229	0x3d4157a8	0.047202736
230	0x3c4db8df	0.012556284
231	0x3b478cb0	0.0030448847
232	0x3bd894bd	0.006609528
233	0xb8f4b894	-0.00011669207
234	0xbb9a68c5	-0.0047121965
235	0x4048d56c	3.1380262
236	0xba71d95b	-0.0009225809
237	0xba5f4e3c	-0.0008518433
238	0xb90461a6	-0.00012624878
239	0xbb75f804	-0.0037531862
240	0xbac3ce74	-0.0014938847
241	0xbb4b7005	-0.003104211
242	0xbb6ab67a	-0.003581433
243	0x396be04c	0.00022494904
244	0x39b12a28	0.0003379148
245	0x409b7ddf	4.859115
246	0x395c7287	0.000210235
247	0xb93da830	-0.000180871
248	0x397dd782	0.00024208243
249	0xb8b17030	-8.460914e-05
250	0xb9c12ef2	-0.00036846806
251	0x397f8658	0.00024368742
252	0x3df3585a	0.11882086
253	0xbfaf1f6d	-1.3681465
254	0x3c91ecce	0.017813113
255	0x3d0cd062	0.034378417

conv1.0.bias f4 [32]
0	0x3e854c78	0.26034904
1	0xbed4cd8a	-0.41563064
2	0xbf97467a	-1.1818383
3	0xc007029e	-2.1095347
4	0xbeafda64	-0.34346306
5	0xc016a1d9	-2.3536284
6	0xbfbcc385	-1.4747168
7	0xbf804492	-1.0020926
8	0x3e79a08f	0.24377654
9	0x3f072594	0.52791715
10	0xbfa7fe76	-1.312453
11	0xbf6158c1	-0.8802605
12	0x3f016239	0.505405
13	0x3f170384	0.5898974
14	0xbe03fd1f	-0.12889527
15	0x3f07d88a	0.5306479
16	0xbf68f357	-0.9099631
17	0xbf8969e4	-1.073544
18	0x3e6bdaf1	0.23032738
19	0xbe969101	-0.29407504
20	0xbec118fd	-0.37714377
21	0xbf29ee97	-0.66379684
22	0x3ea56e0a	0.32310516
23	0x3e4b1385	0.19831665
24	0xbe97d950	-0.29657984
25	0xbf6f9ae8	-0.93595743
26	0xc001b105	-2.0264294
27	0xbfbaa915	-1.458285
28	0x3f33259c	0.6997926
29	0x3f315752	0.69273865
30	0xc021e4cc	-2.5295897
31	0xbf5908a4	-0.8477881

conv1.2.weight f4 [32]
0	0x3ecff90f	0.40619704
1	0x3dc266e9	0.09492285
2	0x400fb3c5	2.2453473
3	0x3fb1e37f	1.3897551
4	0x3f7f85e1	0.9981366
5	0x400f134c	2.2355528
6	0x3f915f62	1.1357234
7	0x400ba45b	2.1819065
8	0x3e2ea90d	0.17056675
9	0x3e42ef9f	0.1903672
10	0x3f86065e	1.0470693
11	0x3f8579df	1.0427817
12	0x3e87b30b	0.26503786
13	0x3e549ea1	0.20763637
14	0x3f6db087	0.92847484
15	0x3e78cdf2	0.24297312
16	0x40034790	2.0512428
17	0x40048c57	2.0710657
18	0x3e4938e2	0.19650605
19	0x3f7f36d6	0.9969305
20	0x3f7fabcc	0.99871516
21	0x3fdcb358	1.7242231
22	0x3e33ac9c	0.17546314
23	0x3e3214a9	0.17390694
24	0x3f7ace66	0.9797119
25	0x3e4c1bc1	0.19932462
26	0x3faf4d5c	1.3695483
27	0x4027e397	2.623266
28	0x3df748a0	0.12074399
29	0x3e475e26	0.19469509
30	0x3fbbf780	1.4684906
31	0x3fe37a99	1.7771789

conv1.2.bias f4 [32]
0	0x3f264a69	0.6495729
1	0xbecce1a0	-0.40015888
2	0x3f15e8d8	0.58558416
3	0x3f18fc93	0.597604
4	0xbeb41d98	-0.35178828
5	0x3f85a7cb	1.0441831
6	0x3ea56ed3	0.32311115
7	0x3e82d03d	0.25549498
8	0xbf26bd10	-0.65132236
9	0xbe349f54	-0.17638904
10	0x3b8c55bb	0.004282681
11	0x3f1ea0ab	0.6196391
12	0x3e6b7e9d	0.22997518
13	0xbd840fd5	-0.06448332
14	0xbe0af313	-0.13569288
15	0x3eb7e1ef	0.3591456
16	0x3ddf59e4	0.10905817
17	0xbe9dd5b1	-0.30827096
18	0x3c995c3e	0.018720742
19	0xbea601bd	-0.324232
20	0x3d6608aa	0.056160606
21	0xbe269020	-0.16265917
22	0xbee9349d	-0.45547953
23	0x3e3985e2	0.18117478
24	0x3e525aea	0.20542493
25	0x3d816257	0.06317585
26	0x3e82035c	0.25393188
27	0x3c9f829a	0.019471455
28	0x3f9e5d28	1.2372179
29	0x3eabdf3d	0.33568755
30	0x3e4e1f92	0.2012923
31	0x3b46a873	0.0030312806

conv1.2.running_mean f4 [32]
0	0x3f1bf119	0.6091476
1	0x3db5b265	0.08871917
2	0x3e8bd613	0.27311763
3	0x3d8159ae	0.06315933
4	0x00000004	6e-45
5	0x3e4bcb7b	0.1990184
6	0x3d36d2b0	0.04463452
7	0x3e6d3f18	0.231686
8	0x3eea33a2	0.45742518
9	0x3eab34b9	0.33438662
10	0x3dc2f612	0.095195904
11	0x00000004	6e-45
12	0x3eabb131	0.33533624
13	0x3ec44990	0.38337374
14	0x3526b5d4	6.2104414e-07
15	0x3eb1f102	0.34754187
16	0x3e57642b	0.21034305
17	0x3e7e0901	0.24808122
18	0x3f03a3f5	0.51422054
19	0x00000004	6e-45
20	0x00000004	6e-45
21	0x3e1c90ae	0.15289566
22	0x3f12e93a	0.57387125
23	0x3eed24e1	0.463172
24	0x00000004	6e-45
25	0x3d7c9a08	0.061670333
26	0x3d90c8c1	0.07069541
27	0x3eaca8b7	0.3372247
28	0x3ef1ee5e	0.47252172
29	0x3eecbb79	0.4623678
30	0x3d9bbf59	0.07604856
31	0x3e48b44d	0.1960003

conv1.2.running_var f4 [32]
0	0x3dd1d73b	0.1024613
1	0x3d4efac7	0.05053213
2	0x3f0335df	0.51254076
3	0x3d537bba	0.051631667
4	0x00000004	6e-45
5	0x3ea8d8e7	0.32977983
6	0x3cd2c0c1	0.025726678
7	0x3ebcd98d	0.36884728
8	0x3d4ef75c	0.05052887
9	0x3ce60138	0.028076753
10	0x3da33078	0.07968229
11	0x00000004	6e-45
12	0x3d071a33	0.03298397
13	0x3d27f85c	0.04100834
14	0x33aa5f29	7.9335514e-08
15	0x3d228ef1	0.0396871
16	0x3e9baaa3	0.30403623
17	0x3ed8885e	0.4229154
18	0x3d82f7ce	0.06394921
19	0x00000004	6e-45
20	0x00000004	6e-45
21	0x3e248c23	0.16069083
22	0x3d8ab10b	0.067720495
23	0x3d949284	0.07254508
24	0x00000004	6e-45
25	0x3d0c238c	0.034213588
26	0x3d72da65	0.05929031
27	0x3f481414	0.78155637
28	0x3d7d000d	0.061767627
29	0x3d792aa4	0.06083168
30	0x3d9913b3	0.074744605
31	0x3e872823	0.2639781

conv1.3.weight f4 [32, 32, 3, 3]
0	0x3e05853d	0.13039108
1	0x3d6c16fe	0.057639115
2	0x3d986ca9	0.074426
3	0x3cce8554	0.02521006
4	0x3c9d226f	0.019181458
5	0x3d26b72a	0.040702023
6	0x3d1cd9f2	0.038293786
7	0x3c90b29e	0.017663296
8	0xbd5a977b	-0.05336712
9	0x3c26d3ca	0.01018233
10	0x3b9659a0	0.004588321
11	0x3d11b7a7	0.035575535
12	0xbd0dee9d	-0.034651387
13	0x3a676bfe	0.0008828043
14	0xbc471479	-0.012150877
15	0x3d12c574	0.035832837
16	0xbd4fbbe7	-0.050716307
17	0x3d0229e3	0.031778228
18	0x3ce50218	0.0279551
19	0xbda6c21c	-0.08142492
20	0xbdaaf9de	-0.0834844
21	0x3d870413	0.06592574
22	0xbcf0f720	-0.029414713
23	0x3e8e9902	0.2785111
24	0x3d7d3ce5	0.06182565
25	0x3d09397a	0.03350208
26	0x3f1520ed	0.58253366
27	0xbcb58e75	-0.022162655
28	0x3dd73662	0.105084196
29	0xbdbec30f	-0.09314548
30	0x3d8cfe6f	0.06884467
31	0x3e027782	0.12740901
32	0xbe063575	-0.1310633
33	0xbd023198	-0.031785578
34	0xbd00a926	-0.031411313
35	0xbe51cd8d	-0.20488568
36	0xbd889551	-0.06669105
37	0xbc9fb03a	-0.019493211
38	0xbdbcaec4	-0.092130214
39	0xbd3e5298	-0.046465486
40	0xbd8c0d8a	-0.0683852
41	0xbcdffc95	-0.02734212
42	0xbd4f6f25	-0.050643105
43	0xbd59824a	-0.05310277
44	0xbd85abbf	-0.065268986
45	0x3dcab507	0.098978095
46	0xbda071f8	-0.07834238
47	0xbc870c36	-0.016485315
48	0xbd094c97	-0.033520307
49	0x3c2959d8	0.010336362
50	0xbe9086df	-0.28227898
51	0xbddd947b	-0.10819336
52	0xbdba6f4f	-0.09103262
53	0xbeb68619	-0.35649183
54	0x3a0bcf5f	0.000533333
55	0x3d35e8ee	0.044411592
56	0xbd366db3	-0.04453821
57	0x3df44bd8	0.119285285
58	0xbcee5e10	-0.029097587
59	0x3da31d56	0.0796458
60	0x3d9ee45e	0.07758401
61	0x3bee0437	0.007263686
62	0x3cd07247	0.025445117
63	0xbdb3c09a	-0.0877697
64	0xbc6a4fb8	-0.014301233
65	0xbcdab202	-0.026696209
66	0xbbcbaee3	-0.0062159165
67	0x3cb2cce2	0.021826211
68	0xbdd7319d	-0.1050751
69	0x3c838b39	0.016057597
70	0x3c52094c	0.012819599
71	0xbd2e7d06	-0.0425997
72	0xbcb3cd18	-0.021948382
73	0xbcf8f8a9	-0.030392008
74	0xbdac84f5	-0.08423797
75	0xbda9aea8	-0.08285266
76	0xbdd94657	-0.106091194
77	0xbdfb448f	-0.12268936
78	0xbd57f29d	-0.05272161
79	0xbda43626	-0.080181405
80	0xbe2c8ce5	-0.16850622
81	0xbd0afd5a	-0.03393302
82	0xbb8a4e78	-0.00422078
83	0xbd8c7e0e	-0.068599805
84	0xbc60c2fa	-0.013718361
85	0xba0c8a1b	-0.00053611555
86	0xbbdca2d8	-0.0067332797
87	0xbb99db3d	-0.0046953247
88	0xbd77643d	-0.06039833
89	0xbceae490	-0.02867344
90	0xbd1439d2	-0.036187954
91	0xbd4e4af8	-0.050364465
92	0xbd9f1039	-0.07766766
93	0xbd889582	-0.06669141
94	0xbab2e632	-0.0013648926
95	0xbe2f3a13	-0.17111997
96	0xbd52243b	-0.051304083
97	0xbd42959b	-0.047505956
98	0xbe5ed1a9	-0.21759667
99	0x3d55c6ce	0.052191548
100	0x3ddc1693	0.10746493
101	0x3e1a354c	0.15059394
102	0x3c27eed0	0.010249808
103	0x3d2bc56e	0.04193633
104	0x3dfbaaec	0.1228846
105	0x3ca2d241	0.019875648
106	0xbc0327aa	-0.008005062
107	0x3d38a6dd	0.04508101
108	0xbd825145	-0.06363157
109	0xbd7385ab	-0.059453648
110	0x3d02910b	0.031876605
111	0xbcf9fd93	-0.030516421
112	0x3c8a875a	0.016910244
113	0xbbe49b9d	-0.0069765584
114	0xba824aea	-0.0009940539
115	0x3c7235c8	0.01478333
116	0xbd3e8214	-0.04651077
117	0xbcc06a27	-0.023488117
118	0xbd5c9695	-0.053854544
119	0xbd00caa5	-0.031443257
120	0xbc73e14e	-0.01488526
121	0xbd13a24f	-0.03604346
122	0xbbe2877f	-0.006913125
123	0xbcfad356	-0.030618351
124	0x3d82bf4f	0.063841455
125	0xbda28fe4	-0.07937601
126	0xbd67cd63	-0.056592356
127	0xbcb7f7fa	-0.022457112
128	0xbd7d6878	-0.061867207
129	0xbd4b498a	-0.04963068
130	0x39fe3205	0.00048483923
131	0x3bd54934	0.0065089706
132	0xbd1e5651	-0.038656536
133	0xbbf6495b	-0.007516069
134	0xbcf7014a	-0.030151982
135	0x3cdf5e32	0.027266596
136	0xbbd57c65	-0.006515073
137	0x3ca508e9	0.02014585
138	0x3cfd10e3	0.030891841
139	0x3ca5e354	0.02025
140	0xbc8e03d7	-0.017335815
141	0x3b80ee43	0.003934653
142	0xbd1cfb1a	-0.038325407
143	0xbd695242	-0.056963213
144	0x3d38fbf5	0.04516216
145	0xbd609525	-0.054829735
146	0x3e829543	0.25504503
147	0xbcbeb3fa	-0.023279179
148	0xbbf1c050	-0.0073776618
149	0x3ead0977	0.33796284
150	0x3d662a8b	0.056192916
151	0x3dc37992	0.09544672
152	0x3e6424fe	0.22279736
153	0xbe04d9e0	-0.12973738
154	0x3e287294	0.16449958
155	0x3eae7fec	0.34081972
156	0xbd2a5b28	-0.04159084
157	0x3eb48443	0.35257158
158	0x3f825e51	1.0185033
159	0xbd263269	-0.04057542
160	0x3e00ce03	0.12578587
161	0x3bfd4707	0.0077294144
162	0xbd59af54	-0.05314572
163	0x3d289d1e	0.041165464
164	0xbb09b7dc	-0.002101413
165	0x3d574050	0.052551568
166	0x3d62e213	0.055391382
167	0x3c82e6af	0.01597914
168	0x3cd48f19	0.02594714
169	0xbd72c6e9	-0.059271727
170	0xbdd696b9	-0.10477967
171	0xbdc01dbf	-0.093806736
172	0xbd33c958	-0.04389319
173	0x3b5b2169	0.0033436662
174	0xbd842382	-0.06452085
175	0xbcddce90	-0.027076036
176	0xbd281656	-0.041036926
177	0xbdaa1b16	-0.083059475
178	0xbcefe2e2	-0.02928299
179	0x3bb71ad7	0.0055879164
180	0xbd03f6aa	-0.03221766
181	0x3d062e87	0.032759216
182	0xbba0c208	-0.004905943
183	0x3bcc79f6	0.006240125
184	0xbd0f6933	-0.035012435
185	0x3d861e30	0.065487266
186	0xbccfafec	-0.02535244
187	0xbd336415	-0.043796618
188	0x3d699f91	0.05703694
189	0x3d7d0257	0.06176981
190	0x3d46a285	0.048494834
191	0x3b517137	0.003195835
192	0x3b227491	0.0024788717
193	0xbd83574b	-0.06413134
194	0xbe0bced8	-0.13653123
195	0x3d32b92f	0.043633636
196	0xbcbe4b5c	-0.023229294
197	0x3da124e9	0.07868368
198	0xbdafb4c9	-0.08579404
199	0xbdbf2d36	-0.09334795
200	0xbd2c2b8a	-0.04203371
201	0xbd0991b7	-0.03358623
202	0x3d033119	0.032029245
203	0x3ca4e75e	0.020129856
204	0xbd768222	-0.060182698
205	0xbd64966c	-0.055807516
206	0xbe016b2c	-0.12638539
207	0x3c6f1c0b	0.014594088
208	0x3c0cd819	0.008596444
209	0x3d00ea53	0.03147347
210	0x3c92c10d	0.01791432
211	0x3d923922	0.071398035
212	0x3d99e4df	0.07514357
213	0xbaee1928	-0.0018165456
214	0x3d6975fa	0.056997277
215	0xbd92a2fa	-0.071599916
216	0xbbd91984	-0.006625356
217	0x3d33cd89	0.043897185
218	0x3c2e9e3b	0.010657842
219	0x3baaa20c	0.005207306
220	0x3d1f27d2	0.038856335
221	0xbcf5276f	-0.02992603
222	0x3c9719f2	0.018444989
223	0xbc039cd0	-0.0080329925
224	0x3db9e68b	0.09077176
225	0xbd0a4de7	-0.0337657
226	0xbc26438d	-0.010147941
227	0xbbfe340f	-0.0077576707
228	0x3d03a8cb	0.032143395
229	0x3d51e2d5	0.051241715
230	0x3bd50030	0.0065002665
231	0x3d41d7c1	0.0473249
232	0x3d5c2521	0.053746346
233	0xbdb8d299	-0.09024543
234	0xbd95df65	-0.07318
235	0xbd180ead	-0.03712337
236	0x3d64d283	0.055864822
237	0xbd859f64	-0.06524542
238	0x3dfd306b	0.123627506
239	0x3e1042dc	0.14088005
240	0xbbbf8215	-0.0058443644
241	0x3dde6c88	0.108605444
242	0xbe4becb4	-0.19914514
243	0x3d79c30f	0.060977038
244	0xbd9524c9	-0.07282407
245	0xb9a5c034	-0.00031614455
246	0xbe080882	-0.13284495
247	0xbea1a7ee	-0.31573433
248	0xbccadb64	-0.024762817
249	0xbda6ae2c	-0.081386894
250	0x3e914f83	0.28380975
251	0x3f07bf51	0.530263
252	0x3dda8d6e	0.10671507
253	0x3dc26fe1	0.094939955
254	0x3db2bbd8	0.087272346
255	0x3dedf10d	0.116182424

conv1.3.bias f4 [32]
0	0x3e6922cd	0.22767182
1	0xbe1e28b7	-0.15445219
2	0xbe8b0488	-0.27151895
3	0xbd66f93a	-0.056390025
4	0x3d4106ba	0.047125556
5	0xbd5753e5	-0.052570242
6	0xbe7d428d	-0.24732418
7	0xbdb198a4	-0.08671692
8	0x3c0477fb	0.008085246
9	0xbdea91df	-0.11453604
10	0x3cbb3a58	0.022854969
11	0xbe6b4227	-0.22974454
12	0xbd3bab30	-0.045817554
13	0xbdea2fec	-0.114349216
14	0xbda864cd	-0.08222351
15	0x3d7af91c	0.061272725
16	0x3e238bc0	0.15971279
17	0xbf0d6d5b	-0.5524499
18	0x3c6164ed	0.013756973
19	0x3d793f88	0.060851604
20	0xbed207f7	-0.41021702
21	0xbdf051c5	-0.11734346
22	0x3d96ba61	0.07359768
23	0xbd50781e	-0.050895803
24	0xbd487a98	-0.04894504
25	0x3c10dbf6	0.008841505
26	0xbdd34ef6	-0.10317795
27	0x3d7d789d	0.061882604
28	0xbe09b35b	-0.13447325
29	0xbe9225e9	-0.28544548
30	0xbdc25ee2	-0.09490754
31	0xbdeeaa17	-0.11653536

conv1.5.weight f4 [32]
0	0x3f98b4bc	1.1930156
1	0x3f510237	0.81644005
2	0x3f94238b	1.1573347
3	0x3f864c2a	1.0491993
4	0x3f2e1c3e	0.68011844
5	0x3f4f8dc5	0.810757
6	0x3f70d139	0.9406925
7	0x3f7c741d	0.98614675
8	0x3faf8257	1.3711652
9	0x3f855e30	1.0419369
10	0x3f7fd584	0.99935174
11	0x3f7366b9	0.9507862
12	0x3f8d4298	1.1035948
13	0x3f924d8d	1.1429917
14	0x3f664102	0.89942944
15	0x3f88f20e	1.0698869
16	0x3f9b19e3	1.2117275
17	0x3f7bf763	0.9842436
18	0x3f7dcc37	0.9913973
19	0x3f7df6bd	0.9920462
20	0x3f6cea66	0.92545164
21	0x3f7070fc	0.939224
22	0x3f8dcaad	1.1077477
23	0x3f83fbdc	1.0311236
24	0x3f85f5d2	1.0465643
25	0x3fb7553e	1.4322889
26	0x3f547dd4	0.830045
27	0x3f8531ca	1.040582
28	0x3f57c15d	0.84279424
29	0x3f4616d2	0.7737857
30	0x3f777aca	0.96671736
31	0x3f6136a9	0.8797403

conv1.5.bias f4 [32]
0	0x3deebdf4	0.116573244
1	0xbceb60d0	-0.028732687
2	0xbf0ea454	-0.55719495
3	0xbf07d89e	-0.53064907
4	0x3dcc2a12	0.09968962
5	0xbdcb6398	-0.099311054
6	0xbe04f8ab	-0.12985484
7	0xbebd3b10	-0.36959124
8	0xbe49b9ae	-0.19699737
9	0xbf0e0257	-0.5547232
10	0xbd5ae567	-0.05344143
11	0xbe423745	-0.18966396
12	0xbf064db8	-0.5246234
13	0xbf50aa0e	-0.8150948
14	0xbe84848a	-0.2588237
15	0x3e535c26	0.2064062
16	0x3e0de43e	0.13856599
17	0xbdb04b5d	-0.086081244
18	0xbe5b8a77	-0.21439539
19	0xbe9f416f	-0.3110461
20	0xbebd980e	-0.3703007
21	0xbee9e642	-0.45683485
22	0xbe1a34b5	-0.15059169
23	0xbe90f3dc	-0.2831105
24	0xbe96bac6	-0.29439372
25	0xbedfd4a7	-0.43716928
26	0x3c59c06f	0.013290509
27	0xbc9372ae	-0.01799902
28	0x3d2a60c1	0.041596178
29	0xbd96299d	-0.07332156
30	0xbe06b1b0	-0.1315372
31	0xbe5b7c92	-0.21434239

conv1.5.running_mean f4 [32]
0	0x4007dd40	2.122879
1	0x3e727251	0.23676421
2	0x404ed9e0	3.232048
3	0x40131184	2.297944
4	0x3e354c9e	0.17705008
5	0x3eb0f3e4	0.34561074
6	0x3f525988	0.82167864
7	0x401400dd	2.3125527
8	0x40420103	3.0313118
9	0x400a7f75	2.1640294
10	0x3f78bd99	0.97164303
11	0x3f330ec4	0.69944406
12	0x4025a009	2.5878928
13	0x404ecbcb	3.2311885
14	0x3f0b2784	0.5435717
15	0x3f815a5d	1.0105702
16	0x40129caf	2.2908132
17	0x3ec96b72	0.39339787
18	0x3fc2294f	1.5168856
19	0x401068eb	2.2564037
20	0x3f566dc4	0.8376124
21	0x3f9c3428	1.2203417
22	0x3fedcca4	1.8578076
23	0x3fd095ed	1.6295754
24	0x3fe92804	1.8215337
25	0x408ccf55	4.400309
26	0x3e8dbcaf	0.27683017
27	0x3fd2c54b	1.6466459
28	0x3eb35005	0.35021988
29	0x3e8c9c88	0.27463174
30	0x3f12c7b2	0.5733596
31	0x3efcfa6c	0.49409807

conv1.5.running_var f4 [32]
0	0x4186f02c	16.867271
1	0x3fd8230c	1.6885695
2	0x40bbbcf7	5.866817
3	0x40c19884	6.0498676
4	0x3f9d6a43	1.2298054
5	0x40328808	2.7895527
6	0x40f0a8d7	7.5206103
7	0x40b74c21	5.728043
8	0x40791238	3.891737
9	0x40b332ba	5.599942
10	0x4109b6e7	8.607154
11	0x40d2c115	6.5860696
12	0x40a39d11	5.112923
13	0x40b7fd76	5.74969
14	0x408c446d	4.3833528
15	0x40c8292c	6.255026
16	0x415238a2	13.138826
17	0x4020e45b	2.5139377
18	0x412852e2	10.520235
19	0x41ce5032	25.789158
20	0x40e84bd2	7.2592554
21	0x404ca1d5	3.1973774
22	0x411db1c3	9.855899
23	0x40f8bea7	7.773273
24	0x40ea9022	7.3300943
25	0x40e80fe7	7.251941
26	0x400891a3	2.133889
27	0x4174ad7a	15.292353
28	0x4031bc79	2.7771285
29	0x3fffb6c3	1.997765
30	0x4066ea99	3.6080687
31	0x4088b3d1	4.2719502

conv2.0.weight f4 [64, 32, 3, 3]
0	0xbda108c2	-0.078629985
1	0x3c94d7b0	0.018169254
2	0x3bdcd1fb	0.006738899
3	0xbd1039a8	-0.035211235
4	0xbced7215	-0.028985063
5	0x39a15302	0.0003077016
6	0x3c7c1446	0.015385693
7	0xbd6172a0	-0.055040956
8	0x3da749c6	0.08168368
9	0xbe5d8895	-0.21634133
10	0x3ccaf51a	0.024775077
11	0xbd170b8b	-0.036876243
12	0x3c9b92ab	0.018990835
13	0xbd3c9d02	-0.04604817
14	0xbdbeedee	-0.09322725
15	0xbdaa5038	-0.08316082
16	0xbde6907b	-0.11258026
17	0x3e3755b6	0.1790379
18	0x3d1cbe51	0.038267437
19	0xbe8af7bc	-0.2714213
20	0x3db87f10	0.0900861
21	0x3d6df507	0.058095004
22	0xbe946039	-0.28979662
23	0x3dc23de8	0.09484464
24	0xbe34ffb5	-0.1767567
25	0xbdbefd0f	-0.09325611
26	0xbdc3fa95	-0.09569279
27	0xbe3b1751	-0.18270613
28	0x3e33ac7b	0.17546265
29	0x3c369c3c	0.011145648
30	0xbd2b9c46	-0.04189708
31	0xbe0df39a	-0.13862458
32	0x3e3b4d14	0.18291122
33	0x3cf978d8	0.03045313
34	0x3a9caf54	0.0011954107
35	0xbe277a94	-0.16355354
36	0xbce58ec1	-0.028022172
37	0xbe9e236e	-0.30886406
38	0xbe8b1989	-0.2716792
39	0xbc30846c	-0.010773759
40	0xbe7ae4cb	-0.2450134
41	0xbe5b4aa6	-0.21415195
42	0x3d00c636	0.03143903
43	0xbebd31be	-0.36952013
44	0xbc77d2d3	-0.015125948
45	0xbd3aec80	-0.0456357
46	0xbde74627	-0.112926774
47	0xbaf9b401	-0.0019050838
48	0xbdcb6461	-0.09931255
49	0xbe3b5f3c	-0.18298048
50	0xbded0bd1	-0.115745194
51	0xbd16d27f	-0.03682184
52	0x3d30748b	0.043079894
53	0x3e699227	0.22809659
54	0xbc2b39a5	-0.010450755
55	0x3dd2c36e	0.102911815
56	0x3daf3856	0.08555667
57	0xbcbe3a69	-0.023221212
58	0xbde1b439	-0.11020703
59	0xbe0a9931	-0.13535
60	0x3df269c9	0.11836583
61	0x3d976866	0.07392959
62	0xbd8f4f21	-0.069975145
63	0x3d3fc110	0.046814978
64	0x3df8e134	0.12152329
65	0xbea20440	-0.31643867
66	0x3d7a95b2	0.061177917
67	0xbe5588dc	-0.20852989
68	0xbea5995c	-0.32343566
69	0x3cecfc53	0.028928911
70	0x3da7fb12	0.08202185
71	0x3cb703d3	0.02234069
72	0xbd544854	-0.05182679
73	0xbe2cbf8c	-0.16869944
74	0xbd84ed86	-0.064906165
75	0xbb733d1a	-0.0037115277
76	0xbe0ff676	-0.14058861
77	0xbaaeb598	-0.0013329266
78	0xbdf04a0a	-0.11732872
79	0x3d4f38ec	0.050591394
80	0xbaa93fea	-0.0012912725
81	0x3d7ec4fc	0.062199578
82	0xbcca3a3d	-0.024685973
83	0xbe131af7	-0.14365755
84	0x3d2da7ec	0.04239647
85	0x3d391784	0.045188442
86	0xbe19d870	-0.1502397
87	0x3e68da27	0.22739469
88	0xb990cc76	-0.00027618156
89	0xbe3be3ec	-0.18348664
90	0xbd9e4989	-0.077288695
91	0xbd9815d5	-0.07426039
92	0xbbc6e28d	-0.0060694874
93	0xbd827868	-0.06370622
94	0xbd9727ac	-0.07380614
95	0xbb30895d	-0.0026937344
96	0x3dd87dc8	0.10570866
97	0xbc1279a9	-0.008940139
98	0xbe0421bd	-0.12903495
99	0x3df6e364	0.1205509
100	0xbe6e29db	-0.23258154
101	0x3d24d120	0.0402385
102	0xbe4572c6	-0.19282064
103	0x3d151d7f	0.036405083
104	0x3cffbb8f	0.031217365
105	0xbe300532	-0.17189482
106	0xbe80e64a	-0.25175697
107	0xbe2cd166	-0.16876754
108	0x3cbaf14c	0.022820137
109	0xbdb2136e	-0.08695112
110	0xbd81c0c4	-0.06335595
111	0xbd3240e2	-0.04351891
112	0xbdc401a4	-0.095706254
113	0xbd245b08	-0.040125877
114	0xbd58a313	-0.052889895
115	0xbcfcc8a8	-0.0308574
116	0xbe1dcee3	-0.15410952
117	0x3e1c1c44	0.15245157
118	0x3e13c0f8	0.1442908
119	0x3b90c6e9	0.004418243
120	0x3dbbb4b0	0.09165323
121	0xbda88e59	-0.08230276
122	0xbda76cb6	-0.08175032
123	0x3dc6d49d	0.097085215
124	0xbd4b818f	-0.049684104
125	0xbea3a569	-0.31962135
126	0x3ceb0af9	0.028691756
127	0x3bd373e3	0.0064530238
128	0xbe9dd2e6	-0.30824965
129	0xbc176eb6	-0.009242704
130	0x3d27cc02	0.04096604
131	0xbf00fa15	-0.50381595
132	0x3cd65aa7	0.026166273
133	0x3d248dc5	0.040174264
134	0x3e13d4c2	0.1443663
135	0xbdd8a92e	-0.105791435
136	0xbca7036c	-0.020387374
137	0x3bdd1f32	0.0067481035
138	0xbbe09216	-0.0068533523
139	0xbd7fb04d	-0.062423993
140	0xbbe4b30c	-0.006979352
141	0x3d577606	0.05260279
142	0x3d9a5eea	0.07537635
143	0xbd1a063d	-0.037603606
144	0x3d118ca9	0.035534535
145	0x3c66a473	0.014077294
146	0xbe1f9922	-0.1558576
147	0xbce99303	-0.028512483
148	0xbd90d657	-0.07072132
149	0xbe3895a4	-0.18025833
150	0x3daaadec	0.08333954
151	0xbd480d68	-0.04884091
152	0x3c6fe472	0.014641868
153	0xbd546040	-0.051849604
154	0xbc2da154	-0.010597546
155	0xbe9cfaef	-0.30660197
156	0xbe4cd0e2	-0.20001557
157	0xbe74a170	-0.23889709
158	0xbe8636b4	-0.2621361
159	0xbe0a9a08	-0.13535321
160	0x3dd50dd0	0.10403025
161	0x3d8150ba	0.063142255
162	0x3a96ba00	0.0011499524
163	0xbe1ff42c	-0.15620488
164	0x3e0d69d5	0.13809903
165	0xbe01c8b4	-0.12674218
166	0xbde3f8a5	-0.111314096
167	0x3c8ff42a	0.017572481
168	0xbd0e34b6	-0.034718238
169	0x3d7f95be	0.062398665
170	0x3e1154da	0.14192525
171	0x3ba5a90f	0.0050555537
172	0x3e01bc57	0.12669502
173	0x3e3b2f37	0.1827973
174	0xbe1fb59d	-0.15596624
175	0x3cde2839	0.027118789
176	0xbcd4899d	-0.025944525
177	0x3c939d14	0.018019237
178	0x3dea96d4	0.114545494
179	0x3d76fe75	0.060301263
180	0xbe03a5e9	-0.12856258
181	0x3e0a23ed	0.13490267
182	0x3e0d89dc	0.1382212
183	0xbdae9957	-0.08525341
184	0x3e154397	0.14576565
185	0x3d5d3592	0.054006167
186	0x3e03f011	0.12884547
187	0x3e1c2c74	0.15251333
188	0x3e13a167	0.14417039
189	0xbe394bbe	-0.180953
190	0x3c9f91c3	0.019478684
191	0xbde4b2e0	-0.1116693
192	0x3cc263dc	0.023729257
193	0xbe04c50e	-0.12965795
194	0x3d2d6c49	0.042339597
195	0x3dbe8eb1	0.0930456
196	0xbb85c690	-0.0040825084
197	0xbd43cf9a	-0.047805406
198	0xbe37d4ff	-0.17952345
199	0xbea9d787	-0.33172247
200	0x3dadca7f	0.08485889
201	0xbd916aba	-0.071004346
202	0xbe99a14d	-0.30005875
203	0xbc51fb15	-0.01281621
204	0xbe895a58	-0.2682674
205	0xbdf21125	-0.11819676
206	0x3e4d25a7	0.20033894
207	0x3d43a410	0.047763884
208	0xbea633d1	-0.32461408
209	0xbc9d84fb	-0.01922845
210	0xbe4d8b69	-0.20072712
211	0xbeaa3611	-0.33244374
212	0xbd9bd89e	-0.07609676
213	0x3bd20d9a	0.006410313
214	0x3e2e4345	0.17017849
215	0x3ea26dcb	0.3172439
216	0xbafc274a	-0.0019237783
217	0xbd8535e1	-0.06504417
218	0xbd6f7e38	-0.05846998
219	0x3d40ad5b	0.047040325
220	0xbed8d59f	-0.4235048
221	0x3e3199e6	0.17343864
222	0xbe2f8fc1	-0.17144682
223	0x3dcda894	0.10041919
224	0x3cfa5258	0.030556843
225	0xbdc54b3e	-0.09633492
226	0xbd56ec61	-0.052471522
227	0x3da10dd6	0.07863967
228	0xbb43299b	-0.0029779437
229	0xbd3750e8	-0.044754893
230	0x3db8b97f	0.090197556
231	0xbe30e584	-0.17275053
232	0xbcabeb44	-0.020986207
233	0xbdab24bb	-0.08356615
234	0xbd3b0034	-0.04565449
235	0xbdcf11cc	-0.10110816
236	0xbe39afef	-0.1813352
237	0xbdd9ba82	-0.10631277
238	0xbe8086b8	-0.25102782
239	0xbe297779	-0.16549481
240	0xbdc1809f	-0.09448361
241	0x3e52577a	0.20541182
242	0x3cd63fd7	0.026153488
243	0xbcb213db	-0.021737983
244	0x3dc7cdef	0.097560756
245	0x3e1e4a26	0.15457973
246	0xbd868132	-0.06567611
247	0x3df34cc9	0.1187988
248	0x3d203faa	0.039123215
249	0x3dc858b0	0.09782541
250	0x3d8f0dc1	0.06985045
251	0x3dad5bbe	0.08464764
252	0x3e2c87c3	0.16848664
253	0xbe8202eb	-0.2539285
254	0xbedbbce1	-0.4291754
255	0xbe38c219	-0.18042792

conv2.0.bias f4 [64]
0	0xbdf6dd3c	-0.12053916
1	0xbd91a56c	-0.0711163
2	0xbe1b9bbd	-0.15196128
3	0xbe1e542e	-0.154618
4	0xbe20ca0c	-0.15702075
5	0xbe2d4f03	-0.16924672
6	0xbe3cf0fd	-0.18451305
7	0xbda54269	-0.08069307
8	0xbe5b6bb3	-0.21427803
9	0xbdb70e3e	-0.08938263
10	0xbeb60d33	-0.35556945
11	0xbeac5702	-0.33660132
12	0xbe600df5	-0.21880324
13	0xbdf17991	-0.11790765
14	0xbd9118ee	-0.07084833
15	0xbd8a594c	-0.06755313
16	0xbe9ebc80	-0.3100319
17	0xbe4cc085	-0.19995315
18	0xbe50720f	-0.2035601
19	0xbd2fa408	-0.04288104
20	0xbe7e8339	-0.24854745
21	0xbe353df1	-0.1769941
22	0xbe3cc6e2	-0.18435243
23	0xbe3db430	-0.18525767
24	0xbe626319	-0.22108115
25	0xbddfd0cc	-0.10928497
26	0xbe0ca2ea	-0.13734022
27	0xbdadf17f	-0.08493327
28	0xbec21ed4	-0.37914145
29	0xbeaed0ee	-0.34143776
30	0xbe886472	-0.26639134
31	0xbe84fb5d	-0.25973025
32	0xbe96514c	-0.293589
33	0xbe921894	-0.28534377
34	0xbc4c0195	-0.012451549
35	0xbdb5aa0c	-0.088703245
36	0xbde1e1a4	-0.11029366
37	0xbe239cca	-0.15977779
38	0xbe77fc00	-0.24217224
39	0xbd3ed168	-0.046586424
40	0xbe3fa238	-0.18714225
41	0xbe4c6d4d	-0.1996357
42	0xbd777276	-0.060411893
43	0xbd8640d1	-0.065553315
44	0xbd9911a1	-0.074740656
45	0xbe172215	-0.14759095
46	0xbea7f34f	-0.32802817
47	0xbdc2d47c	-0.095131844
48	0xbdf666df	-0.1203134
49	0xbe5e7923	-0.21725897
50	0xbdec90e2	-0.11551072
51	0xbdee9d1b	-0.11651059
52	0xbeae5a78	-0.34053397
53	0xbde88d5d	-0.11355088
54	0xbe0935e6	-0.13399467
55	0xbe3cc500	-0.18434525
56	0xbe5a360a	-0.21309677
57	0xbe91f73b	-0.28508934
58	0xbe1766aa	-0.14785257
59	0xbd97ae2a	-0.07406266
60	0xbe99ed5a	-0.30063897
61	0xbcaa30fd	-0.020775313
62	0xbe7d692d	-0.24747153
63	0xbe50075b	-0.20315306

conv2.2.weight f4 [64]
0	0x3f580aa9	0.84391266
1	0x3f5472f6	0.82987916
2	0x3f841d7b	1.0321497
3	0x3f71b8b9	0.9442249
4	0x3f830d1b	1.0238374
5	0x3fad36d5	1.3532358
6	0x3f79701c	0.9743669
7	0x3f8fa2e5	1.1221586
8	0x3f7890d8	0.97096014
9	0x3f6ec484	0.9326861
10	0x3f696efe	0.91184986
11	0x3f6cd060	0.92505455
12	0x3f7c0388	0.9844289
13	0x3f725d06	0.9467319
14	0x3f9dedb5	1.2338167
15	0x3fa1e42c	1.2647758
16	0x3f8a2857	1.0793561
17	0x3f89ed5c	1.0775561
18	0x3f817e43	1.0116657
19	0x3f63c60e	0.8897408
20	0x3f81c6c5	1.0138785
21	0x3f925b00	1.1434021
22	0x3f7fb278	0.99881697
23	0x3f630720	0.88682747
24	0x3f7a1bf1	0.97698885
25	0x3f81e0d5	1.0146738
26	0x3f5dcef4	0.8664391
27	0x3f956f69	1.1674625
28	0x3f740c13	0.95330924
29	0x3f6b3d5e	0.91890514
30	0x3f8804b7	1.0626439
31	0x3f873405	1.056275
32	0x3f8300d7	1.0234631
33	0x3f825f45	1.0185324
34	0x3fa6d1b8	1.3032751
35	0x3f83b94d	1.0290924
36	0x3f7c2cd6	0.98505914
37	0x3f6da25d	0.9282587
38	0x3f6d7a5c	0.9276483
39	0x3f7e3c9c	0.9931123
40	0x3f895346	1.0728538
41	0x3f8a3a9d	1.0799137
42	0x3f6b1001	0.91821295
43	0x3f586c58	0.8454032
44	0x3f96e6ed	1.1789223
45	0x3f9b03b9	1.2110511
46	0x3f8e79b0	1.1130886
47	0x3f7b84c3	0.98249453
48	0x3f8ff22d	1.1245781
49	0x3f94b77d	1.1618496
50	0x3f58f871	0.8475409
51	0x3f92ea05	1.1477667
52	0x3f928505	1.1446844
53	0x3f7d9f80	0.990715
54	0x3f7a7486	0.9783405
55	0x3f92fcad	1.148336
56	0x3f8bea9e	1.0930974
57	0x3f7098f8	0.9398341
58	0x3f84fdaa	1.0389912
59	0x3f8179a1	1.0115243
60	0x3f94f0af	1.1635951
61	0x3f86b4d7	1.0523938
62	0x3f81bbb3	1.0135406
63	0x3f8b1abf	1.0867537

conv2.2.bias f4 [64]
0	0x3ec77a9a	0.38960725
1	0x3d70897a	0.058724858
2	0xbd79528c	-0.06086974
3	0xbd5fb43f	-0.054615255
4	0x3e3e0b03	0.18558888
5	0x3d3ae52c	0.04562871
6	0x3e3c60c0	0.18396282
7	0x3e7aab4e	0.2447941
8	0x3d9ffabe	0.07811497
9	0x3e228bc9	0.15873636
10	0x3e5f0267	0.2177826
11	0x3caace59	0.020850347
12	0xbdb018c3	-0.08598473
13	0x3d8858d5	0.06657568
14	0x3e6b6591	0.22987963
15	0x3ea6b9bd	0.32563582
16	0x3e229d61	0.15880348
17	0x3e5a963f	0.21346377
18	0x3edc6636	0.4304673
19	0x3e8aa931	0.27082208
20	0x3e5643b0	0.20924258
21	0x3e021e85	0.12706955
22	0x3dd6d723	0.10490253
23	0x3df09bae	0.117484435
24	0x3c8c8995	0.017155448
25	0x3e271d29	0.16319717
26	0xbe245038	-0.16046226
27	0x3dd1442e	0.10218082
28	0xbd2068b7	-0.039162364
29	0x3e7faa92	0.24967411
30	0x3d1d5e0d	0.038419772
31	0x3ed50c0e	0.4161076
32	0xbcccb4f9	-0.024988638
33	0x3ec45f1f	0.38353822
34	0x3e8c3d16	0.27390355
35	0x3ece479a	0.40289003
36	0x3d41dd8c	0.047330424
37	0xbc3d0506	-0.011536842
38	0x3e731b6b	0.23740928
39	0x3e030e6d	0.12798472
40	0x3eaf7b0f	0.34273574
41	0xbddf7c8b	-0.109124266
42	0x3e86ec87	0.2635233
43	0x3d883e01	0.06652451
44	0x3df90817	0.12159746
45	0x3ee725f1	0.45146134
46	0xbe8363e8	-0.2566216
47	0x3e8c6cb4	0.27426684
48	0x3e09e27a	0.134653
49	0x3ea849e2	0.32868868
50	0xbdccbfdc	-0.09997532
51	0x3ebe3c72	0.3715549
52	0x3e997404	0.29971325
53	0x3d3d42bc	0.04620622
54	0x3e2f0b12	0.17094067
55	0x3e9c9caf	0.3058829
56	0x3edd0227	0.43165705
57	0xbcaa6c5a	-0.02080362
58	0x3d89180f	0.06694042
59	0x3e3a37f6	0.1818541
60	0x3d02cb94	0.03193243
61	0x3ecc2f27	0.39879724
62	0x3dab2616	0.08356874
63	0x3d5cd7bc	0.053916678

conv2.2.running_mean f4 [64]
0	0x3f632fa3	0.8874456
1	0x3fab2d85	1.3373266
2	0x40231e53	2.5487258
3	0x4023dac2	2.560227
4	0x3fe53138	1.7905645
5	0x40076aca	2.115893
6	0x3fde7870	1.7380505
7	0x4008d0f5	2.1377537
8	0x3fba8839	1.4572822
9	0x3fd44efe	1.6586607
10	0x3f7497c4	0.95544076
11	0x3f9fa81b	1.2473177
12	0x3fb263ce	1.3936708
13	0x3f9d07bb	1.2267984
14	0x3f1abfb8	0.6044879
15	0x401c10ff	2.4385374
16	0x3faeca64	1.3655515
17	0x3fcb581b	1.5886263
18	0x3fa3ef48	1.2807398
19	0x4009490e	2.145084
20	0x3fb74161	1.4316827
21	0x3ffb2ee3	1.9623684
22	0x3fb8c0d5	1.4433848
23	0x3fc320c9	1.524438
24	0x3fdeb7ff	1.7399901
25	0x3fbb739c	1.4644656
26	0x400b5e1f	2.1776197
27	0x3fe0ea16	1.7571437
28	0x3fb9fd87	1.4530495
29	0x3f8ae480	1.0850983
30	0x3fb8477d	1.4396816
31	0x3feb6fba	1.8393471
32	0x400f9aa4	2.2438135
33	0x3f912699	1.1339904
34	0x4009b288	2.1515217
35	0x4002c686	2.043367
36	0x3fd28eff	1.6449889
37	0x402c467b	2.6918018
38	0x3f6270dc	0.8845346
39	0x3fc07b8f	1.5037707
40	0x3fdc1e24	1.7196698
41	0x3fe33bc8	1.7752619
42	0x3fc868a9	1.565694
43	0x3f961ddf	1.1727866
44	0x3f380779	0.718864
45	0x3fb051c3	1.3774952
46	0x3f7f6493	0.9976284
47	0x4003632b	2.0529277
48	0x3f9e826c	1.2383552
49	0x3fb051e4	1.3774991
50	0x4015f17c	2.342864
51	0x40075fba	2.1152177
52	0x3fd28f40	1.6449966
53	0x40181ff9	2.3769515
54	0x3f9c85b5	1.2228304
55	0x3fc0b62b	1.5055593
56	0x3fe38362	1.777447
57	0x3f89b559	1.0758468
58	0x3fd495a1	1.6608163
59	0x3ff12bb4	1.8841462
60	0x3fa3f6ad	1.2809654
61	0x4020ea1d	2.5142891
62	0x3ff963e6	1.9483612
63	0x3f786484	0.97028375

conv2.2.running_var f4 [64]
0	0x408d1cd3	4.4097686
1	0x410137a6	8.076086
2	0x41821373	16.259497
3	0x4152dde7	13.179175
4	0x4106b148	8.418282
5	0x4102dce1	8.1789255
6	0x41259c45	10.350652
7	0x4138e93a	11.55694
8	0x41264f68	10.394386
9	0x41284448	10.51667
10	0x40aaad24	5.3336353
11	0x410f43da	8.954065
12	0x41030e33	8.190967
13	0x41287f00	10.531006
14	0x3fc094df	1.5045432
15	0x411f50ff	9.957274
16	0x40a83109	5.2559857
17	0x40fa3c60	7.81987
18	0x40ce4328	6.445698
19	0x412bd84c	10.740307
20	0x410db738	8.857231
21	0x41593f85	13.578008
22	0x4124e39c	10.305569
23	0x41175d7c	9.460323
24	0x410ec149	8.922189
25	0x41045cf8	8.272697
26	0x4138fe1e	11.56204
27	0x40f34818	7.6025505
28	0x41125dd6	9.147909
29	0x41113f6a	9.077982
30	0x40e897c3	7.2685256
31	0x410bcd43	8.737613
32	0x417acd35	15.675099
33	0x41196f9e	9.58975
34	0x40dfbc7b	6.991758
35	0x4109673f	8.587707
36	0x40efca5e	7.493453
37	0x41789080	15.535278
38	0x40a5086e	5.157279
39	0x40ceb36a	6.459401
40	0x41346a9e	11.27603
41	0x413d8c16	11.846701
42	0x410625a4	8.38419
43	0x40fc8586	7.8912992
44	0x4002a502	2.0413213
45	0x409987d8	4.7978325
46	0x409d5474	4.916559
47	0x4137e8be	11.494322
48	0x40f7a3f4	7.738764
49	0x40a4ab05	5.1458764
50	0x413c8e98	11.784813
51	0x4105f2e7	8.371802
52	0x4106258c	8.384167
53	0x4153ecac	13.245281
54	0x409d744b	4.920446
55	0x40c3c158	6.1173515
56	0x41025ad1	8.147172
57	0x40c76e58	6.2322197
58	0x4124e91d	10.306912
59	0x412b0be6	10.690405
60	0x40e3d76c	7.1200466
61	0x413ce171	11.805039
62	0x4141151d	12.067655
63	0x40930820	4.594742

conv2.3.weight f4 [64, 64, 3, 3]
0	0x3c80dd21	0.015730442
1	0x3e4f89c3	0.20267396
2	0x3d5e2353	0.054232907
3	0xbdab26bb	-0.083569966
4	0xbeaac24e	-0.33351368
5	0xbdaadc33	-0.08342781
6	0xbd9a99ba	-0.07548852
7	0xbdc629b1	-0.09675921
8	0x3d2867be	0.04111456
9	0x3d8c754e	0.068583116
10	0x3d54b29a	0.05192814
11	0x3e14b86f	0.14523481
12	0xbd860841	-0.06544543
13	0xbdb60500	-0.088876724
14	0x3e509894	0.20370704
15	0x3e163c26	0.14671382
16	0xbd9da474	-0.076973826
17	0xbaae555c	-0.0013300586
18	0xbe1cdf03	-0.15319447
19	0xbcc0eb8e	-0.023549821
20	0xbe46923a	-0.19391719
21	0x3da88bc9	0.08229787
22	0xbd9184e6	-0.071054265
23	0xbd6f0962	-0.058358558
24	0xbd833010	-0.064056516
25	0xbc79ed71	-0.015254364
26	0x3e332775	0.1749552
27	0xbcd81981	-0.026379349
28	0x3da5b0bb	0.08090349
29	0xbd67ff72	-0.056640096
30	0x3dc93369	0.09824259
31	0x3e3b0f77	0.18267618
32	0xbd98b551	-0.07456458
33	0xbe342a12	-0.17594174
34	0xbdd128a9	-0.102128334
35	0xbdadaae3	-0.0847986
36	0xbdbc96b2	-0.0920843
37	0xbe1b1b48	-0.15147126
38	0x3d30b69f	0.04314291
39	0x3da07041	0.07833911
40	0xbde9f023	-0.114227556
41	0xbd8d1013	-0.068878315
42	0x3e1780c7	0.14795218
43	0xbe2971a2	-0.16547254
44	0x3ddd687f	0.10810947
45	0x3eb7771b	0.35833058
46	0xbe612266	-0.21985778
47	0xbc860331	-0.016358944
48	0xbde63bea	-0.112418965
49	0x3d34e20e	0.044160895
50	0xbe33dd26	-0.1756483
51	0x3e1546c4	0.14577776
52	0x3d70cba3	0.058787953
53	0xbeaec8d6	-0.341376
54	0xbc71b346	-0.014752215
55	0x3e358194	0.17725211
56	0x3d542b5f	0.051799174
57	0x3c924012	0.017852817
58	0xbdab7607	-0.08372121
59	0x396c4e9b	0.00022535997
60	0xbd86d985	-0.06584457
61	0xbcdd6fe9	-0.027030902
62	0x3eab033c	0.33400905
63	0x3e330e95	0.17486031
64	0x3d0287c1	0.031867746
65	0xbc7c009b	-0.015381004
66	0x3dc351c2	0.095370784
67	0xbe34f986	-0.1767331
68	0x3dd39cf1	0.103326686
69	0xbe0eb0bf	-0.13934611
70	0x3d715df0	0.058927476
71	0x3dbd255b	0.092356406
72	0xbe0fe6b9	-0.14052857
73	0x3c496d4c	0.012294125
74	0xbdb1e30f	-0.08685886
75	0xbd665456	-0.056232773
76	0xbb713ca5	-0.0036809829
77	0xbd1512f4	-0.03639503
78	0xbe21d926	-0.15805492
79	0x3d01d431	0.031696502
80	0x3e4a3832	0.19748
81	0xbdfd4dfe	-0.123683915
82	0xbe9d5a48	-0.30732942
83	0xbdd7df42	-0.1054063
84	0x3d887a29	0.06663925
85	0xbcf35a4c	-0.029706143
86	0xbd61fed0	-0.05517465
87	0x3dafba3f	0.085804455
88	0x3b2bafd9	0.0026197343
89	0xbd863d8c	-0.06554708
90	0xbe897b28	-0.26851773
91	0x3b7775ef	0.0037759503
92	0xbd767f0e	-0.060179763
93	0xbdb718d3	-0.08940282
94	0xbd05b094	-0.0326391
95	0xbdcdd132	-0.100496665
96	0x3a881dbf	0.0010384842
97	0xbd6e107b	-0.058121186
98	0xbd2e40aa	-0.042542137
99	0x3dd756ae	0.1051458
100	0x3e38db3a	0.18052378
101	0xbe1446db	-0.14480154
102	0x3e418d4c	0.18901557
103	0xbd8e7e78	-0.06957716
104	0x3d04cdfd	0.03242301
105	0xbdaa2e1c	-0.08309576
106	0xbde32281	-0.110905655
107	0x3d71a424	0.058994427
108	0xbd207d1e	-0.03918182
109	0xbdf17586	-0.11789994
110	0x3dc8331e	0.09775375
111	0x3dca45ab	0.09876569
112	0x3e136bf8	0.14396656
113	0x3c2714b8	0.010197811
114	0xbe47502a	-0.19464174
115	0x3e5d6244	0.21619517
116	0x3ac6f5cf	0.0015179458
117	0xbb4419a7	-0.0029922517
118	0x3e7be7a0	0.24600077
119	0x3e8335ca	0.25626975
120	0xbdd2402f	-0.10266148
121	0xbc8fbba1	-0.017545523
122	0xbcc11617	-0.023570104
123	0xbe68509c	-0.22687
124	0xbdb525d6	-0.08845107
125	0x3dbae958	0.09126538
126	0x3c66de9d	0.014091161
127	0xbe5416e3	-0.20711856
128	0xbd82738e	-0.063696966
129	0xbddd94fa	-0.10819431
130	0xbe40c678	-0.1882571
131	0xbe1ee0a6	-0.15515384
132	0x3e5b91d6	0.21442351
133	0xbd192303	-0.037386905
134	0xbcc0a73a	-0.02351724
135	0xbd013e20	-0.031553388
136	0xbdef2ace	-0.11678086
137	0x3cf87369	0.03032847
138	0x3c04b8c6	0.008100694
139	0x3d95dcbc	0.07317492
140	0xbdf25413	-0.11832442
141	0xbc95239d	-0.018205458
142	0x3ddeab50	0.10872519
143	0xbe6f396f	-0.23361753
144	0x3de9312b	0.11386331
145	0x3dd13d7a	0.10216804
146	0xbe34722c	-0.17621678
147	0xbbf62d23	-0.007512705
148	0xbe1eab34	-0.15494996
149	0xbceff2ca	-0.029290576
150	0xbd2559dd	-0.040368903
151	0xbdd97eb1	-0.106198676
152	0xbe39e571	-0.18153931
153	0x3a99ca8a	0.0011733335
154	0xbd2d896d	-0.042367388
155	0x3c488186	0.012237912
156	0xbdb2b4db	-0.08725902
157	0x3d214013	0.039367747
158	0xbd0801d2	-0.03320486
159	0xbe550bd7	-0.20805298
160	0xbe32c37b	-0.17457382
161	0x3d7d9d80	0.06191778
162	0xbd52e8bd	-0.051491488
163	0xbd8dce55	-0.0692412
164	0xbd343f90	-0.04400593
165	0xbdb66246	-0.08905463
166	0xbc3c85b6	-0.011506489
167	0xbd978da2	-0.07400061
168	0xbdf338c2	-0.1187606
169	0xbdaca386	-0.08429627
170	0x3db716fa	0.08939929
171	0xbd30172c	-0.04299085
172	0x3e6aac60	0.22917318
173	0x3d5a9fdf	0.05337512
174	0xbd330d1b	-0.04371367
175	0x39d90b80	0.00041398033
176	0xbd1e22d9	-0.038607452
177	0x3d724e36	0.05915662
178	0xbd6bc8c7	-0.057564523
179	0xbcff6f66	-0.031181049
180	0xbd802f13	-0.06258979
181	0xbeb2caf1	-0.34920457
182	0xbe0c09fd	-0.13675685
183	0x3de268dd	0.11055157
184	0x3dbb6681	0.091504104
185	0xbd2ac0d5	-0.041687805
186	0xbcda64b3	-0.026659345
187	0x3be3ba7a	0.00694972
188	0xbdb9cb77	-0.09072011
189	0x3d8bf1e9	0.0683325
190	0xbeafbf91	-0.3432584
191	0xbe0a50e4	-0.1350742
192	0x3d341583	0.043965828
193	0xbe6af1fc	-0.22943872
194	0xbd3efb29	-0.046626244
195	0xbd9dd23f	-0.07706117
196	0xbc0237eb	-0.007947902
197	0xbcb6cf3b	-0.022315612
198	0x3d778fa1	0.06043971
199	0xbe312ac9	-0.17301477
200	0x3d0e310c	0.034714743
201	0x3e0d9401	0.1382599
202	0xbd88754b	-0.06662997
203	0x3d996ab1	0.07491053
204	0xbd5ed33f	-0.05440068
205	0x3c846c0c	0.016164802
206	0x3d91260c	0.07087335
207	0xbd803d50	-0.062616944
208	0xbc9c5b07	-0.019086374
209	0x3da407da	0.0800931
210	0xbdeb6e6e	-0.11495672
211	0xbdc6354c	-0.09678134
212	0xbd4555ab	-0.048177402
213	0xbd0485f4	-0.03235431
214	0xbe599dbe	-0.2125158
215	0xbd425865	-0.04744758
216	0x3c8b95c1	0.017039182
217	0xbe089c7f	-0.13340949
218	0xbd7d9adf	-0.061915275
219	0xbd5abde8	-0.053403765
220	0x3dac3ef5	0.084104456
221	0x3e1e3650	0.15450406
222	0xbdb5bba9	-0.08873684
223	0x3ec82959	0.39094046
224	0x3e3c822f	0.18409036
225	0x3d8c1cb1	0.0684141
226	0xbd92fde1	-0.0717733
227	0xbd8f4c71	-0.06997002
228	0xbde379e3	-0.111072324
229	0x3e9afd23	0.30271253
230	0x3daec5f5	0.08533851
231	0xbdbbbedf	-0.09167265
232	0x3dc38df1	0.095485575
233	0x3dde1ab3	0.10844936
234	0x3ca8baf8	0.020596966
235	0xbdc6fe6f	-0.09716498
236	0x3c6e5a74	0.014547933
237	0xbd70f3aa	-0.058826126
238	0xbc77c467	-0.01512251
239	0xbdbbfa8c	-0.091786474
240	0x3d4fd0dd	0.050736297
241	0xbbb5f5b9	-0.005552974
242	0x3d4315cf	0.04762822
243	0x3dc1d381	0.09464169
244	0x3d72de16	0.05929383
245	0x3e202572	0.15639284
246	0x3e8973e3	0.26846227
247	0x3e366c51	0.17814757
248	0x3d9e4c16	0.07729356
249	0x3d9a7da6	0.07543497
250	0xbd0ea0b7	-0.03482124
251	0xbea16694	-0.31523573
252	0xbd132e3e	-0.03593277
253	0xbd379a78	-0.044825047
254	0xbead3e64	-0.33836663
255	0x3de8ea3b	0.11372801

conv2.3.bias f4 [64]
0	0xbe42d55d	-0.19026704
1	0xbccb7572	-0.024836276
2	0xbde3ace6	-0.11116962
3	0xbde75783	-0.112959884
4	0xbe87418f	-0.26417205
5	0xbe2adde0	-0.16686201
6	0xbe146b8f	-0.14494155
7	0xbe05a2c6	-0.13050374
8	0xbde00b3d	-0.109396435
9	0xbeb5c5ef	-0.35502574
10	0xbd6b19e3	-0.057397734
11	0xbe64669a	-0.22304764
12	0xbe0d02e8	-0.1377064
13	0xbe83f319	-0.25771406
14	0xbe3e978c	-0.18612498
15	0xbdd2dc8c	-0.10295972
16	0xbe0b120b	-0.13581102
17	0xbdefe904	-0.11714366
18	0xbe4a81ac	-0.19776028
19	0xbe5e1c52	-0.21690491
20	0xbdb3d121	-0.087801225
21	0xbd3ab44a	-0.045582093
22	0xbe0615d3	-0.13094263
23	0xbe3ad85c	-0.18246597
24	0xbdea5211	-0.11441434
25	0xbe21af03	-0.15789418
26	0xbe8b63ed	-0.27224675
27	0x3d2fb36b	0.042895716
28	0xbe3763ac	-0.17909116
29	0xbe4256b2	-0.18978384
30	0xbe7a51bf	-0.24445246
31	0xbe200dd7	-0.1563028
32	0xbe851429	-0.25991943
33	0xbe2753b1	-0.1634052
34	0xbe5a694a	-0.21329227
35	0xbe48226d	-0.19544382
36	0xbe85ed61	-0.26157668
37	0xbe2496db	-0.16073172
38	0xbe18e106	-0.1492959
39	0xbe3df98c	-0.18552226
40	0xbe8fe788	-0.28106332
41	0xbe1f68a0	-0.15567255
42	0xbe56bfd3	-0.20971613
43	0xbdfcfcca	-0.12352903
44	0xbe7fea24	-0.24991661
45	0xbe402dc0	-0.18767452
46	0xbe9db1de	-0.30799764
47	0xbe401c17	-0.18760715
48	0xbbc9aee9	-0.006154884
49	0xbe171711	-0.14754893
50	0xbe5b3671	-0.21407486
51	0xbe4b9c86	-0.19883928
52	0xbd686bbf	-0.05674338
53	0xbdf46843	-0.11933949
54	0xbe5e8cfa	-0.21733466
55	0x3a9faa77	0.001218154
56	0xbe82725f	-0.25477883
57	0xbe441a52	-0.19150665
58	0xbe245268	-0.1604706
59	0xbdf2a3b3	-0.118476294
60	0xbe275930	-0.16342616
61	0xbe3fb03a	-0.18719569
62	0xbe195471	-0.14973618
63	0xbdffecc9	-0.12496335

conv2.5.weight f4 [64]
0	0x3f55e75c	0.8355615
1	0x3f4a147f	0.78937525
2	0x3f5e38ec	0.86805606
3	0x3f4a9ae7	0.7914261
4	0x3f44be5d	0.7685297
5	0x3f4d7fe5	0.80273277
6	0x3f5c42f7	0.8603968
7	0x3f4efcf4	0.80854726
8	0x3f6b4abc	0.9191091
9	0x3f42a466	0.760321
10	0x3f62368d	0.8836449
11	0x3f4e193a	0.8050724
12	0x3f486f35	0.7829469
13	0x3f4383e2	0.7637311
14	0x3f5ebadc	0.87003875
15	0x3f75c8a4	0.9600928
16	0x3f824e63	1.0180172
17	0x3f58c477	0.8467478
18	0x3f4fd749	0.81187874
19	0x3f5793c2	0.84209836
20	0x3f4bf613	0.79672354
21	0x3f48f7c5	0.78503066
22	0x3f487309	0.7830053
23	0x3f469db3	0.7758438
24	0x3f65253c	0.8950994
25	0x3f5dc69f	0.86631197
26	0x3f5f4253	0.8721058
27	0x3f7aaf6a	0.9792391
28	0x3f53a069	0.8266664
29	0x3f5f1825	0.87146217
30	0x3f5b82c4	0.8574641
31	0x3f5ee805	0.87072784
32	0x3f4ff1eb	0.8122851
33	0x3f39bc9f	0.7255344
34	0x3f57024f	0.839879
35	0x3f7564ee	0.9585713
36	0x3f47e4f7	0.7808375
37	0x3f8bdffc	1.092773
38	0x3f564c0b	0.8370978
39	0x3f4d0538	0.8008609
40	0x3f5f29f1	0.8717337
41	0x3f639345	0.8889659
42	0x3f572090	0.8403406
43	0x3f59739d	0.84942037
44	0x3f432aba	0.7623707
45	0x3f5ddf87	0.866692
46	0x3f45df07	0.7729344
47	0x3f42e64b	0.7613265
48	0x3f78e8bc	0.97230124
49	0x3f718a9c	0.94352126
50	0x3f61e206	0.8823551
51	0x3f66da3c	0.9017675
52	0x3f65b793	0.8973324
53	0x3f57f75f	0.84361833
54	0x3f3ebe8b	0.74509495
55	0x3f5da257	0.86575836
56	0x3f5ccd90	0.86251163
57	0x3f4e6ddf	0.806364
58	0x3f4b5498	0.79425955
59	0x3f6e644e	0.931218
60	0x3f73265c	0.94980407
61	0x3f546fe8	0.82983255
62	0x3f562317	0.8364729
63	0x3f7a70ed	0.9782856

conv2.5.bias f4 [64]
0	0xbf1357ca	-0.5755583
1	0xbf1b2787	-0.6060719
2	0xbf093c76	-0.5360788
3	0xbf18253b	-0.5943181
4	0xbf1b11ab	-0.60573834
5	0xbf0625cd	-0.5240143
6	0xbeffa2fd	-0.49929038
7	0xbec2c652	-0.3804193
8	0xbf1f32f5	-0.6218713
9	0xbf1a225e	-0.6020869
10	0xbf100b1a	-0.5626694
11	0xbf248b5a	-0.64275134
12	0xbf104fda	-0.56371844
13	0xbf14557f	-0.57942957
14	0xbf00ff42	-0.5038949
15	0xbf6d38a5	-0.9266456
16	0xbf68fe3f	-0.9101295
17	0xbf4b7b4a	-0.79485
18	0xbf1a47da	-0.60265887
19	0xbec17e70	-0.37791777
20	0xbf3f29d1	-0.7467318
21	0xbf1f6904	-0.62269616
22	0xbefd108b	-0.49426684
23	0xbf32f461	-0.6990414
24	0xbf175815	-0.5911878
25	0xbf1702c7	-0.5898861
26	0xbf3eddb6	-0.74557054
27	0xbf36f756	-0.71471155
28	0xbecf09a3	-0.4043704
29	0xbf245658	-0.6419425
30	0xbf02e7f0	-0.5113516
31	0xbf404f06	-0.7512058
32	0xbefc0280	-0.49220657
33	0xbf18f704	-0.59751916
34	0xbf241c30	-0.6410551
35	0xbf3da028	-0.74072504
36	0xbebb016c	-0.36524522
37	0xbf79720f	-0.97439665
38	0xbf2f5505	-0.68489105
39	0xbed6b587	-0.4193537
40	0xbf2375f3	-0.6385185
41	0xbf29bf85	-0.6630786
42	0xbf469785	-0.7757495
43	0xbf090c3a	-0.5353428
44	0xbf082537	-0.53181785
45	0xbf19d94f	-0.6009721
46	0xbef14017	-0.4711921
47	0xbf00afdb	-0.50268334
48	0xbf3124d2	-0.6919681
49	0xbf39798e	-0.724511
50	0xbf1846d1	-0.5948306
51	0xbf0a3a71	-0.53995425
52	0xbf296e06	-0.6618351
53	0xbf1591a2	-0.58425343
54	0xbed78a17	-0.42097542
55	0xbf366d28	-0.7126031
56	0xbf0dabde	-0.55340374
57	0xbf2a00dd	-0.6640757
58	0xbf072830	-0.52795696
59	0xbf14012f	-0.57814306
60	0xbf551638	-0.8323703
61	0xbf08b2af	-0.5339765
62	0xbf0b99b4	-0.5453141
63	0xbf6e070e	-0.92979515

conv2.5.running_mean f4 [64]
0	0x3f2b7b55	0.66985065
1	0x3f2bcf19	0.6711288
2	0x3f44e063	0.76904887
3	0x3f070e1a	0.5275589
4	0x3f22efc3	0.636471
5	0x3ef5b084	0.47986233
6	0x3f02f0cd	0.5114868
7	0x3ec9096f	0.3926501
8	0x3f37eaca	0.71842635
9	0x3ef74cca	0.48300773
10	0x3f5dc87b	0.86634034
11	0x3f425e20	0.75924873
12	0x3f273a1c	0.6532304
13	0x3eb9a245	0.36256614
14	0x3f0e255e	0.5552577
15	0x3f63cc14	0.88983274
16	0x3f8fc5be	1.1232221
17	0x3f6da14b	0.9282424
18	0x3f0f2551	0.55916315
19	0x3ec6ca97	0.3882644
20	0x3ee53b78	0.44771934
21	0x3f2675a7	0.65023273
22	0x3f0d6720	0.5523548
23	0x3f01f93c	0.50770926
24	0x3f18ce0a	0.5968939
25	0x3f24da29	0.64395386
26	0x3f1b9d96	0.6078733
27	0x3f79fc03	0.97650164
28	0x3eb9da1c	0.36299217
29	0x3f4705b1	0.7774306
30	0x3f1684d1	0.5879641
31	0x3f49dc5c	0.78851867
32	0x3eef8330	0.46779776
33	0x3ecc940a	0.39956695
34	0x3eea1375	0.4571797
35	0x3f59df43	0.85106295
36	0x3e8ca7be	0.27471727
37	0x3f9f9812	1.2468283
38	0x3f18df0f	0.5971536
39	0x3ec594b5	0.38590017
40	0x3f023429	0.5086084
41	0x3f5b44c7	0.8565182
42	0x3f03df2d	0.51512414
43	0x3ef90f62	0.4864455
44	0x3ec05996	0.3756835
45	0x3f1e85f2	0.61923134
46	0x3ecc8467	0.39944765
47	0x3f0ab571	0.5418311
48	0x3f5dc10b	0.86622685
49	0x3f8ef876	1.1169574
50	0x3f356e1b	0.7087113
51	0x3f7c51c0	0.9856224
52	0x3f4ba3e1	0.79546934
53	0x3f2c3afc	0.67277503
54	0x3ef4e285	0.4782907
55	0x3f3b28e7	0.7310929
56	0x3f172a3d	0.59048826
57	0x3f2eebb2	0.6832839
58	0x3f0b9452	0.54523194
59	0x3f6bf394	0.92168546
60	0x3fa2ad06	1.2709053
61	0x3ed8f5d4	0.42375052
62	0x3efc5f1e	0.4929132
63	0x3f5b35f6	0.8562921
